230912_SGD_Default_weights.pth (torch, 4367 bytes, 5 tensors)

conv1.0.weight f4 [4, 1, 3, 3]
00000000: faa3 743e 6b1f 9bbe 30a2 853d d24f 8fbe
00000010: 30c2 d53d 2497 92be dcef ddbd 0af3 563e
00000020: 909a bfbd d3b5 683f c54a 7c3f 6bb0 803f
00000030: 0951 ee3f 1f58 0a3d 04f2 ccbf a2e9 6fbf
00000040: 43e0 04c0 4c03 a5bf c49d cb3f 0998 353e
00000050: 87ea 8ebf 19a7 8cbf eb18 f4bf a82c 39bf
00000060: 5385 c1bf d2ce f43e f197 d73f 6f11 03c0
00000070: ffae fdbf a635 d4be bd76 c8bf 19c7 c83e
00000080: 91ce 183f eaa6 bf3f 1f12 b13f 0b97 a43f
0.23890677 -0.30297408 0.065250754 -0.27990586 0.10437429 -0.28630936 -0.10836765 0.2099115
-0.09355652 0.9090244 0.9855159 1.0053838 1.861848 0.033775445 -1.6011357 -0.9371587
-2.0761878 -1.2891631 1.5907521 0.17733778 -1.1165322 -1.0988494 -1.9070104 -0.72333765
-1.5118812 0.4781404 1.6843244 -2.047939 -1.981903 -0.4144718 -1.5661236 0.392144
0.59690195 1.4972813 1.3833655 1.2858595

conv1.0.bias f4 [4]
00000000: a013 073c a6f1 933f 7189 2940 3ac8 ac3f
0.008244425 1.155812 2.6490138 1.3498604

conv2.0.weight f4 [8, 4, 3, 3]
00000000: 6025 9e3b c64f 9a3d 5f2b 003e 6b37 9dbd
00000010: e26d eb3d 3478 4c3d 21cb 143e c7f3 07be
00000020: e024 9bbc 7fbb 83be f310 853e 4c22 893e
00000030: 7213 553f f306 043d 1eea 8bbe 68e6 b53d
00000040: a5a8 bcbe ce9f 8fbd d1be fb3e f530 cd3c
00000050: 6c48 88bb 2e51 643f b48d 113e f90b b8be
00000060: c9ef 17be 6849 99be 3486 51bd 21ab 993e
00000070: f2d2 3a3f af42 493e 83e2 323f 1ba8 6fbe
00000080: 56fe 90be 2d58 98be a02a 75bd 9d0e 983c
00000090: c415 313d e324 c8bd 909c 563c 3eeb c43d
000000a0: 03ec d1bd ce08 c4bd b069 76bd d61e d53d
000000b0: 55cc 053e a97c 383d a633 373f 8d1c 0b3e
000000c0: 1b4d 433f d0a1 20bf 8943 5ebf 7903 b33e
000000d0: 89e3 683e fdbf 983e 8e3a 183f 27df a43e
000000e0: 6344 903d c343 a7bd 7959 e6bd 456a a8be
000000f0: b940 5dbe b8ec b6be 5c31 95bd 1c14 3b3e
00000100: 3de2 473f 0bfd 1c3f 19da 0b3f d0b3 443f
00000110: 606d 13bf d053 29be 5740 18bd 91d2 6ebe
00000120: 1880 fabd 4091 d4bd 3c85 00be c8df 82bc
00000130: 5bc9 9ebd 4036 1abe 60f0 683d 3ac8 b93d
00000140: 4859 9c3c 6bfc ca3f 857a 2e3e 87f9 a3bf
00000150: 4a61 78be ce42 e7be e92f bfbe f3c4 92be
00000160: 1c99 f23e 2a25 d63e a51a 0340 3f50 26be
00000170: eb66 8fbf 1a81 4abf b94c 89be 557d 253e
00000180: 87db 06bf 99fe d03c c016 043f a4f9 8e3f
00000190: 1303 0c3e 5453 4dbf 12fe ee3e 3675 03bd
000001a0: 25f3 5dbe 27b7 60be f1e6 083f ef49 a8be
000001b0: 7c6c 2a3d 3067 00bc 9848 a9bd b87f f4bd
000001c0: 0a03 c73d 00ac 2c3d 28de c23c 203a 513d
000001d0: 68e1 b9bc 55a6 433f 579a 963e e179 bfbe
000001e0: 005d d1be d236 883e e600 093f 7277 4a3f
000001f0: 3a29 3a3f fab9 38bf b1fe 81be 0d2e fc3e
00000200: b0a8 ed3d a68d 893e 09fe b5bf eba5 0abe
00000210: ff0b 833f 76ed 7b3f abd9 83bf e917 c4be
00000220: 7d5e b0bd 7750 253e 3f2d a63f ea3f 85bf
00000230: f6a4 ab3b d51f c43b 0b6d b13e 9d72 483f
00000240: 0e8c f6bd 9077 a43d 441f 07be 2465 26be
00000250: a0fa dc3c 8678 87bd aebd ccbd ba39 a13d
00000260: 5650 acbd cd57 063f 355c d73e f3cf 4bbd
00000270: 4bd8 623f 16fa 023f a9a0 3b3f 2568 12bd
00000280: 1908 ee3d 06b2 38bf 6a0c 033f feed f23e
00000290: e434 e9bd 7138 723f 2926 aa3e 6279 1a3f
000002a0: 8ee5 283f 8725 003f d9e7 643e 4022 d83d
000002b0: d819 0f3e 11c1 4ebb eb7d 4f3f 304d 3e3e
000002c0: 473b d13e 189c a43f 6652 1f3f 3b57 873e
000002d0: 4062 85bd 60b5 3b3d 0080 12ba 1717 103e
000002e0: 8838 e2bc 4c2d 37bd a0e6 d1bd 231b e2bd
000002f0: 4c67 40bd 6109 363e bad7 903f cf48 bbbe
00000300: e4e5 093f a1f9 1cbe 4019 e2bd ff28 233e
00000310: 45e4 9ebe 3bd0 94bf e86d 823f 9325 553f
00000320: 1baf 8b3d 7db0 513f 409d a6be 2a55 083d
00000330: 6e3a 0fbe 19c7 9fbe 10ce 243f e8be 9f3e
00000340: 6f3f e73f ec7a 02bf c20f 1dbe 8609 a9be
00000350: bb08 123f 91d4 a3be 8e26 3d3f 76ae d83e
00000360: f0d1 603d 039c adbd 27d1 1a3e 9069 67bc
00000370: 8048 1cbc fea8 a73d e87b aebd 2e6d 03be
00000380: e388 1bbe 3285 ea3e a293 ec3d 904c 42be
00000390: 48f0 e93d b268 de3e ea82 ecbe 5e01 293e
000003a0: 69f4 b3be 1432 99be 17db 42be b1c7 29bf
000003b0: 585a 00be 5ea8 89be c822 8fbe 92be 76be
000003c0: acd0 843d 1dc3 12bd 21b6 063e 598e 52be
000003d0: 13c8 5d3e c0aa 013e dd19 24bf 4cbf 56bd
000003e0: 7d65 8abe 5fd5 533e fe2b 3b3f 69cd 3e3f
000003f0: ac6d 74bd 242a 653d 2be8 a6bd c09d 9ebc
0.004826233 0.07534747 0.12516545 -0.07676586 0.11495568 0.049919322 0.14530613 -0.13276587
-0.018938482 -0.25728986 0.25989494 0.2678398 0.83232796 0.03223319 -0.27327055 0.08881837
-0.36847416 -0.07012902 0.4916902 0.025047759 -0.004159024 0.8918637 0.14214212 -0.35946634
-0.14837565 -0.29938817 -0.051153377 0.30013373 0.72978127 0.19654344 0.6987688 -0.23403971
-0.28319043 -0.29754773 -0.059855103 0.018561656 0.043233648 -0.097726606 0.013098851 0.096151814
-0.10250094 -0.09571992 -0.060159385 0.10406272 0.13066228 0.04504076 0.71563184 0.1358511
0.7628953 -0.62746906 -0.868218 0.34963587 0.22743048 0.29833975 0.5946435 0.32201502
0.07044294 -0.081672214 -0.11247534 -0.32893577 -0.21606721 -0.35727477 -0.07284805 0.1826939
0.7807959 0.6132361 0.54629666 0.7683687 -0.5758877 -0.16535878 -0.037170734 -0.23322512
-0.12231463 -0.10379267 -0.12550825 -0.015975848 -0.07753249 -0.15059757 0.056869864 0.09071393
0.019085541 1.5858282 0.17038925 -1.2810525 -0.24255863 -0.45168155 -0.3734124 -0.28665885
0.47382438 0.4182523 2.0485013 -0.16241549 -1.1203283 -0.79103243 -0.26816347 0.16161092
-0.5267872 0.025512027 0.51597214 1.1169934 0.13673048 -0.80205274 0.46678215 -0.032094203
-0.21674784 -0.21944867 0.5347739 -0.32868907 0.041607365 -0.007837102 -0.08265799 -0.11938423
0.097173765 0.04215622 0.023787573 0.051080823 -0.02269049 0.7642568 0.29414627 -0.37397674
-0.40891266 0.26604325 0.53516996 0.7908851 0.72719157 -0.7215878 -0.25389627 0.49253884
0.1160444 0.26865882 -1.421815 -0.13539855 1.0238036 0.9840921 -1.0300802 -0.38299492
-0.08611772 0.16143976 1.2982558 -1.041013 0.0052381707 0.00598524 0.34653506 0.78299886
-0.12038432 0.08030617 -0.1319552 -0.1624952 0.026974976 -0.06614785 -0.09997116 0.078723386
-0.0841376 0.52477723 0.42062536 -0.049758863 0.88611287 0.5116285 0.7329202 -0.03574385
0.11622638 -0.7214664 0.5119082 0.474472 -0.11387041 0.9461737 0.3323224 0.60341465
0.6597527 0.5005726 0.22354068 0.10553408 0.13974702 -0.0031548182 0.8105151 0.18584132
0.40865538 1.2860136 0.62235105 0.2643374 -0.0651288 0.04582727 -0.00055885315 0.14071308
-0.027614847 -0.044720933 -0.10249066 -0.11040332 -0.04697351 0.17777015 1.1315835 -0.36578986
0.5386641 -0.15329601 -0.11039972 0.15933608 -0.3103353 -1.1626047 1.0189791 0.8326046
0.06820508 0.81909925 -0.32541847 0.033284344 -0.13987133 -0.31206587 0.64376926 0.31200337
1.8066233 -0.50968814 -0.15338042 -0.33015078 0.5704457 -0.31998113 0.73886955 0.42320603
0.054887712 -0.084770225 0.15118848 -0.014124289 -0.00953877 0.081865296 -0.08519727 -0.12834617
-0.15188937 0.45804745 0.11551596 -0.18974519 0.11422783 0.4343925 -0.4619363 0.16504428
-0.35147408 -0.2992102 -0.19028889 -0.6632033 -0.12534463 -0.26886266 -0.27956223 -0.24096134
0.064851135 -0.035830606 0.13155414 -0.20562114 0.21658354 0.12662792 -0.64101964 -0.05242853
-0.27030554 0.20686863 0.73114 0.7453218 -0.059674904 0.05594839 -0.08149751 -0.01936233

conv2.0.bias f4 [8]
00000000: c6c9 56bf 0967 29bf 8ba9 debe cabb 83bf
00000010: 9df1 c33f 95a4 aebe 9d4e c53f 8c59 67bd
-0.8390163 -0.66172844 -0.43488726 -1.0291684 1.530811 -0.3410994 1.5414616 -0.056481883

out.weight f4 [1, 96]
00000000: c127 36be c989 283e 21a4 68be a27e e0bd
00000010: 7f9e 8c3d f336 ce3f 3253 13be 38db 273f
00000020: a98f 903e ba90 653e 1be6 533e d45f 93bc
00000030: 4b22 2d3d bea8 033e c9af 54be ca7b 74be
00000040: 7705 8b3f ce46 79be a2c7 723e 2899 cc3f
00000050: e26b 1f3f 00f8 2e3f 0565 02be 7221 2dbe
00000060: 4ce1 783b c929 2e3c 616f 77be 376a 95be
00000070: 8af7 29bf bb06 2040 6432 9b3f fe20 9d3f
00000080: f8be 043e 1830 543f 7dd7 03be 4816 183c
00000090: a5a7 a2be 87e5 0d3e 0fef 293e da0a 7c3d
000000a0: 63a3 8ebe e887 0540 c583 ea3f 3e48 2c3f
000000b0: d229 0cbe c995 513e cfe0 c2bd d47b 12be
000000c0: 0bea 36bf 08db 62bf 593e 1fbf 631a 3fbf
000000d0: e9ad d93f 95cf 0b40 8a50 82bf a65b ffbf
000000e0: 3648 2ebe f64e 21bf 62d5 febe 4d64 e6be
000000f0: 1c02 cfbd d361 f73c a805 433e e5fe 533d
00000100: c2a5 f7bf 4800 7b3f a89d 183f 1651 61bf
00000110: adb6 1c40 a43b 9f3f ac28 be3e dcde 4bbf
00000120: dedd 8cbe 669c bdbe 6ec1 47be 4585 30be
00000130: 82f0 88bf 1ff8 91bf fa2b 9bbf fdaf 943e
00000140: 4a4b dbbe 1088 c7be ade0 abbe 953a a2bc
00000150: 66a2 bbbd ba6f 5fbe 3a6e 4a3e 8643 7bbe
00000160: ea92 a13d 0e95 6dbd 246b b9bd bd44 313e
00000170: 74bc 9f3d e3da e73d b7b7 5ebe 1731 173d
-0.17788602 0.16458811 -0.2271886 -0.10961653 0.06866168 1.6110519 -0.14387205 0.65568876
0.28234604 0.2241849 0.20693247 -0.01799003 0.042269032 0.12857339 -0.20770182 -0.23875347
1.0861043 -0.24343416 0.23708966 1.598424 0.6227399 0.6834717 -0.12733848 -0.1690729
0.0037976084 0.01063008 -0.24163581 -0.29182598 -0.6639334 2.5004108 1.2124753 1.2275693
0.12963474 0.82885885 -0.12875171 0.009282656 -0.31768528 0.13857089 0.165951 0.061533786
-0.2785903 2.08642 1.8321463 0.6729773 -0.13687828 0.20467295 -0.09515535 -0.14305049
-0.7145087 -0.88615465 -0.6220451 -0.7464964 1.7006198 2.1845448 -1.0180829 -1.9949844
-0.17019734 -0.6301111 -0.49772173 -0.44998398 -0.10107824 0.030198013 0.19045126 0.05175676
-1.934746 0.98047304 0.59615564 -0.8801435 2.4486496 1.2440076 0.37140405 -0.7963693
-0.2751302 -0.37033385 -0.19507381 -0.17238338 -1.0698397 -1.1403846 -1.2122796 0.29040518
-0.42830878 -0.38970995 -0.33569852 -0.019803325 -0.091618344 -0.21819964 0.1976861 -0.24537477
0.0788935 -0.058003478 -0.090536386 0.17311378 0.077996165 0.11321046 -0.21749769 0.03691205
